browser/User Data/Default/optimization_guide_prediction_model_downloads/d6881cc7-2e7e-441f-ae8a-fb270901fa68/model.tflite (tflite, 64852 bytes, 5 tensors)

arith.constant f4 [1, 64]
000000 c7 88 f2 3b cf 65 19 3e e4 7e 35 3e e1 1f 22 3e
       0.007401559 0.14980243 0.17724186 0.15832473
000010 57 a9 32 be 6d a7 54 be 32 7d a7 3e 2e b4 ae be
       -0.1744741 -0.20766993 0.32712704 -0.3412184
000020 f0 02 87 be 7f d7 c5 3d 57 87 9d be 18 87 66 be
       -0.2636943 0.09660243 -0.3076732 -0.22512472
000030 60 52 e0 3d 00 f1 b3 3e ff d0 8c 3d 87 e1 d7 3d
       0.10953212 0.35144806 0.068758 0.10541063
000040 21 42 68 be b2 2f b2 3d a8 57 14 3e 88 2e 19 3e
       -0.22681476 0.087005034 0.14486563 0.14959157
000050 bd b5 9f 3e b1 a8 59 3d be b7 af 3e de a2 ae bc
       0.31193343 0.053139392 0.34319872 -0.021317896
000060 92 f4 97 bd 63 57 4f be 66 53 5f bb 31 5d b3 be
       -0.07419695 -0.20248179 -0.003407681 -0.35032037
000070 05 1d 71 be 5e 18 48 be 76 b4 b2 3e 31 19 15 3f
       -0.23546226 -0.19540545 0.34903306 0.58241564
000080 86 e8 35 be f4 47 9b be 44 22 8e 3e 4a 66 a4 be
       -0.17764482 -0.30328333 0.27760518 -0.3210929
000090 51 9f 11 3e c2 a8 05 be b7 ea 71 be 20 37 2e 3e
       0.1422093 -0.13052657 -0.23624693 0.17013216
0000a0 c4 b6 c7 3d 27 84 95 3e e8 be 26 bb 7a 9c a5 3c
       0.09751657 0.29202387 -0.002544338 0.020216215
0000b0 9a 54 25 3e 19 22 b2 be 6c e9 b1 be e6 32 01 3e
       0.16145554 -0.3479164 -0.347484 0.12617072
0000c0 3f 4b 86 be b0 21 2b 3e b2 90 15 3e f4 34 cf 3d
       -0.26229283 0.1671207 0.14605978 0.10117522
0000d0 ea dc f4 bd ed d7 08 3e 37 34 66 3e c0 b5 bc 3d
       -0.119561985 0.13363619 0.22480856 0.092143536
0000e0 ba 06 b7 3e ca 02 81 3e cd 56 84 bd 24 2a be 3e
       0.3574732 0.2519744 -0.064618684 0.37141526
0000f0 44 8d 38 be 2c c4 bb 3e d7 f9 7a 3e cb 46 8d be
       -0.18022639 0.36673105 0.24509369 -0.27593073

arith.constant1 f4 [64, 128]
000000 27 34 3c bd 2a 1e d5 3d 32 57 a7 3d a4 18 19 3e
       -0.045948174 0.10406144 0.08170928 0.14950806
000010 ed 04 10 be 5a cb 16 bc 08 99 1a 3e 66 e3 78 3d
       -0.14064379 -0.009203756 0.1509744 0.06076374
000020 fa 8b ab bd 92 64 bd 3d f5 55 a0 3d 66 ee 18 3e
       -0.08376308 0.09247698 0.07828895 0.14934692
000030 a5 a5 f5 3d 50 37 21 3d f9 b0 17 3e da 07 0f 3d
       0.11994485 0.03935939 0.14813603 0.034919597
000040 82 77 05 3e 15 07 fd bd c8 cf 1f 3e e6 56 4b bd
       0.1303387 -0.123548664 0.15606606 -0.04964342
000050 10 9a bf 3c 3d d8 1c 3e 09 80 91 bd 42 f8 de bd
       0.023388892 0.15316863 -0.07104499 -0.10887195
000060 09 3e e9 bd 2a 1a fb bd db 32 08 3e 86 f5 ea 3d
       -0.113887854 -0.1226085 0.1330065 0.11472611
000070 ce 96 06 bd a1 56 2c 3d 51 b0 02 bd 3a 61 db bd
       -0.032858662 0.042074803 -0.03190643 -0.10711904
000080 a5 75 cc bd df 59 d8 3d 64 11 92 bd 7e 41 d9 bd
       -0.099833764 0.105640166 -0.07132223 -0.10608195
000090 c5 9c 2e 3e 44 49 7c 3d 1a 51 0d bd c0 db 0f 3e
       0.1705199 0.06159331 -0.034501173 0.14048672
0000a0 d1 e4 27 3e 46 2f 97 bd be fc 24 3e 1d c1 89 3c
       0.1639588 -0.073820636 0.16112038 0.016815716
0000b0 3b 2c 19 3e 81 bb 0b bd b6 96 db 3d fe bb 00 3e
       0.14958279 -0.034114365 0.10722105 0.12571713
0000c0 50 77 1c 3e 9b 77 02 3e 27 3c 25 3e 5c fc 55 3d
       0.15279889 0.12740938 0.16136228 0.05224262
0000d0 1d 4f 01 3e a2 f1 13 3c 1e f6 67 bd 8b 36 27 be
       0.12627836 0.009029778 -0.0566312 -0.163294
0000e0 0d c4 20 3c 3e 0c 46 3d 6f 0c 2c 3b 82 eb f8 3c
       0.009812367 0.04835152 0.0026252528 0.030385736
0000f0 3c 3d ff bd 30 0e 05 3e 6c af ab 3d 46 6e e2 bd
       -0.124628514 0.12993693 0.083830684 -0.11056189
000100 1d 8e d8 3d bd db 21 3e 22 e4 2d bd 10 8f 9f 3c
       0.10573981 0.1580648 -0.042453893 0.019477397
000110 d3 db 16 3e 99 53 24 be b9 8e fc bd 86 5f 13 be
       0.14732294 -0.16047515 -0.1233191 -0.14391908
000120 a0 42 89 3d d0 d7 69 bd cc 28 40 bd 41 39 93 bd
       0.06702161 -0.05709058 -0.046913907 -0.07188655
000130 0e 78 01 be f7 54 0f be 74 84 21 be 16 2b 5f bc
       -0.12643453 -0.13997255 -0.15773183 -0.013621112
000140 f5 85 0f be 28 63 bc bd 56 e5 ec 3d a7 be 84 bd
       -0.14015944 -0.091986 0.1156718 -0.064816765
000150 c0 9c 08 be 52 66 ba 3d 12 5e 4d 3d 5a 8e fe 3d
       -0.13341045 0.09101547 0.05013854 0.12429495
000160 0b 1f c1 3d b7 d2 a9 bd b8 a0 e8 bd 93 ea d9 bd
       0.09429749 -0.08292144 -0.1135878 -0.106404446
000170 ca a4 23 be 8a 7e ed bd 2f ed 15 be 1b 64 d8 3c
       -0.15980831 -0.11596401 -0.1464126 0.026414922
000180 86 78 5b bc 6d 42 19 3d 95 b9 ba bd 8e 0a 98 bd
       -0.013395434 0.037416864 -0.09117428 -0.07423888
000190 8a ba e8 bc 7f bc b9 3c 92 2d cc 3d 93 0e e4 3d
       -0.028409261 0.02267289 0.09969629 0.11135592
0001a0 1d 11 63 3d 36 c4 86 bc 3c 89 7a 3d 70 16 27 3e
       0.055436242 -0.016450983 0.061166033 0.16317153
0001b0 5d ba db 3d 1e 4f 01 bd 78 9d af 3d d7 0b 16 be
       0.10728905 -0.031569593 0.08574957 -0.14652954
0001c0 6f 9e 92 3c 17 d9 2e 3d 4a ad df 3d 84 3c 80 3c
       0.017897813 0.0426875 0.10921724 0.015653856
0001d0 e4 2f 92 bc cc 74 66 3d ef 58 04 3d ba e1 08 3d
       -0.017845102 0.05626373 0.032311376 0.033418395
0001e0 28 25 02 3e 28 c2 e6 3c 18 96 9c bd c3 03 4c bd
       0.12709486 0.028168753 -0.076458156 -0.049808275
0001f0 dc 12 d9 3d 1f 5a 18 3d 87 e7 dd 3c 74 81 ce bd
       0.105993 0.03719532 0.02708794 -0.10083285
000200 3c 22 09 bd df 89 7a 3d 3b 10 4f bd 11 3a f0 bd
       -0.033479914 0.06116664 -0.050552588 -0.11729825
000210 b5 49 3f be fd eb db bc c8 5d 15 3e 69 ff 2b 3e
       -0.18680461 -0.026845926 0.14586556 0.1679665
000220 54 45 9b bd ca ec bc bd 51 b1 07 3e 0a 6b 61 bc
       -0.07581583 -0.092248514 0.13251235 -0.01375843
000230 41 fc 36 be a1 aa 10 be f2 64 26 3e 64 01 f0 3d
       -0.17869665 -0.1412759 0.16249445 0.11719015
000240 c9 62 7a bd 2d d9 0c 3e 1f e4 95 3d 03 4e 26 be
       -0.061129365 0.13754721 0.07318901 -0.16240697
000250 0f 08 18 3e 26 94 4d bd 97 84 89 bd 67 9a 52 3c
       0.14846824 -0.050190113 -0.06714743 0.012854195
000260 e6 25 52 3c b0 df 94 bd a9 03 1c 3c 7d b2 f9 bd
       0.0128264185 -0.072692275 0.009522357 -0.12192247
000270 38 bf d7 3d 79 b1 e0 bc ba 7c 66 3c ba f2 64 bd
       0.10534519 -0.027428376 0.014067823 -0.055895545
000280 d3 0e 0c 3d 3d 77 3a 3d 66 a2 1f 3d b7 00 45 3d
       0.034193825 0.04552387 0.038973235 0.048096385
000290 ed ac a2 bd dd b0 b0 bd 8b 79 e4 3d 91 62 07 bd
       -0.07943139 -0.08627484 0.11155995 -0.033052985
0002a0 67 98 be 3d cc a4 fe bc f0 ad 09 be 01 50 a4 bd
       0.09306412 -0.03108444 -0.13445258 -0.08023072
0002b0 4a 44 2c 39 a9 f9 a7 3d 0f 29 20 be cf 6f ee bc
       0.00016428638 0.08201916 -0.15640663 -0.029106049
0002c0 97 69 29 bc c8 7e 79 bd 42 0d 25 be f2 d1 2f be
       -0.010340116 -0.060911924 -0.16118339 -0.17169932
0002d0 31 75 b5 bd 07 d7 76 bd f2 10 23 3e 86 e0 0e be
       -0.08860243 -0.06026366 0.15924433 -0.13952836
0002e0 ed d1 b2 3d 4d 7a 1c be 23 dd 02 3e f7 f3 4a 3e
       0.087314464 -0.15281029 0.1277967 0.19819628
0002f0 a8 e9 38 bc 18 e9 00 3e 3b 28 bf 3d 69 22 91 3d
       -0.011286177 0.12588918 0.09333845 0.07086641
000300 5e c8 ee bb 34 21 4a be 08 96 43 be d2 8d 1a be
       -0.007287069 -0.19739228 -0.19100201 -0.15093163
000310 0e 3e fe 3d e1 b3 cd 3d bd 40 16 3e 9e 1d 0e bd
       0.1241418 0.10044075 0.14673133 -0.034696214
000320 cc 35 e2 3d ce 95 ac 3d 3c 75 ed bd 0e 4a f1 3d
       0.11045417 0.084270105 -0.11594626 0.11781703
000330 59 c9 0c be 3b ea 6e bc 5c c3 c7 3d a4 cb 49 bd
       -0.13748683 -0.014582212 0.09754059 -0.049266472
000340 68 a2 a2 bd 93 69 95 bc 42 37 dd bd d2 b4 bc 3c
       -0.07941133 -0.018238818 -0.10801555 0.02303544
000350 97 ff a3 3d cd 46 25 3e 66 22 ef bd cf f5 c0 bd
       0.08007734 0.1614029 -0.11676483 -0.09421884
000360 58 fe 9b bd 8f 6a f1 3d ca e5 93 bd f4 08 3a 3e
       -0.076168716 0.117879026 -0.07221563 0.18167478
000370 68 1d 08 be a3 95 3b bd 7c 86 92 3d 2a ba aa 3c
       -0.13292468 -0.045797 0.07154557 0.020840723
000380 89 b6 67 3d 0f fe 45 3e b2 7e b3 bd 6b de a8 bd
       0.056570563 0.19335197 -0.087643996 -0.08245548
000390 3b 73 e0 bb b4 f5 6b bd 1e 75 97 bd ef 84 42 bd
       -0.006849674 -0.057607368 -0.07395385 -0.047490057
0003a0 08 db 71 3d 7d ef 0d 3e 9a 8a c2 3d db b6 bb bd
       0.059046775 0.13860889 0.094990924 -0.09165736
0003b0 9a 75 20 be 40 cb 75 bd ae 6f 92 3d 98 b2 39 be
       -0.15669861 -0.060008287 0.071502075 -0.18134534
0003c0 e0 23 f1 bd 94 d4 5b 3c 24 75 a2 bc e3 a0 2f be
       -0.11774421 0.013417382 -0.019831248 -0.17151217
0003d0 3c f6 13 be e1 27 14 3d d1 a7 db 3c 3e 40 03 3e
       -0.144494 0.036170844 0.02681342 0.12817475
0003e0 de a9 09 3e 38 bf ad bd ed e7 12 be 23 90 c0 bb
       0.13443705 -0.08483738 -0.14346285 -0.0058765574
0003f0 d7 75 27 be 33 db c5 bd e3 a4 47 be 77 95 d3 bd
       -0.16353546 -0.096609496 -0.19496493 -0.103312425

arith.constant2 f4 [128, 12]
000000 be e6 08 bb 83 46 1f 3e 12 a3 7a bd 8a e2 3a 3e
       -0.0020889486 0.15554242 -0.061190672 0.1825048
000010 0f 36 94 3c 7e e4 da bd d7 c5 28 be 7b 39 19 be
       0.018092183 -0.10688113 -0.1648172 -0.14963333
000020 8c 5b ab 3d 63 e0 1d 3e cc a2 c2 bd ce d2 53 3b
       0.083670706 0.15417628 -0.09503707 0.0032321694
000030 36 af 0e bd 48 16 54 3e a3 60 55 3e 4a eb 50 bc
       -0.034835063 0.20711625 0.20837645 -0.01275141
000040 24 93 c6 3d e6 85 7c be 7b 51 34 bd e9 a5 cf bc
       0.096960336 -0.24660453 -0.04402302 -0.025347667
000050 dd d6 04 3e 2b 63 c6 bd c3 49 08 be 57 88 d7 3c
       0.12972589 -0.096868835 -0.13309388 0.02631013
000060 e2 42 4e 3d ad 5c 06 be 67 57 15 3d 29 ce 14 3e
       0.050356753 -0.1312129 0.036460306 0.14531769
000070 55 13 69 bd be e3 79 3e 42 c4 f3 3d 81 84 95 bd
       -0.056903202 0.24403283 0.119026676 -0.07300664
000080 46 79 0d bd 20 18 f8 3d f5 23 88 be e6 49 83 3e
       -0.034539483 0.121139765 -0.26589933 0.25642318
000090 c6 8c ca 3d c3 91 18 bd d3 ae eb 3d 5c 19 ff 3d
       0.09890132 -0.037248384 0.115079544 0.12456009
0000a0 00 0f 39 bd 71 1c cd 3d 3e da 3f 3d 34 1b 23 3d
       -0.04518032 0.100151904 0.04683899 0.039820865
0000b0 60 26 71 be 37 f3 15 3e 29 c9 2c 3b b3 b8 b6 3c
       -0.23549795 0.1464356 0.0026365018 0.022304868
0000c0 ba c3 77 be 60 84 32 bd 02 09 c4 3c bb 18 0c be
       -0.24195758 -0.043583274 0.023930077 -0.13681309
0000d0 7e be 06 3e a6 dc 56 be 88 65 e4 3d d3 2b 04 be
       0.13158605 -0.20982608 0.11152178 -0.12907343
0000e0 2e a0 6a bd c0 23 47 bd 11 51 02 3e 3b ae 52 bd
       -0.057281666 -0.04861808 0.12726237 -0.05143569
0000f0 9a bf ba 3c b6 b1 0a bb 73 98 16 be 19 df c3 3d
       0.02279644 -0.0021163053 -0.14706592 0.09564037
000100 c0 1d d8 bd 30 55 51 3e 4e 8c 36 be 19 3f 08 3e
       -0.10552549 0.20442653 -0.1782696 0.1330532
000110 7c 20 5a 3d d3 95 51 bd cb 34 24 3e 60 46 bc 3d
       0.053253636 -0.051168274 0.16035764 0.091931105
000120 26 7d 04 be 04 9c 22 be fd ce e4 3d ae 15 47 3d
       -0.12938365 -0.15879828 0.111722924 0.04860466
000130 75 37 d2 bd 53 7d 0d 3e 69 bb 1d 3e 56 4a 8a bd
       -0.10264484 0.13817339 0.15403523 -0.0675246
000140 97 92 05 be 9a 11 92 3d 4b 35 80 bd 0d 2b 33 3e
       -0.13044201 0.071322635 -0.06260165 0.17496891
000150 00 26 ad 3d 7f d8 fb bd 50 25 2c 3c 90 2f 48 3d
       0.084545135 -0.12297153 0.010506943 0.048873484
000160 22 a0 2d 3e ba 35 19 be 18 be 91 bd 44 2c 92 bd
       0.16955617 -0.14961901 -0.07116336 -0.07137349
000170 58 81 23 3d be 86 b9 bc bf ed 23 3e e3 47 5f be
       0.039918274 -0.022647258 0.16008662 -0.21804766
000180 3a e0 67 be 0c 2d de 3d e1 e8 3d 3d d2 43 00 be
       -0.2264413 0.10848436 0.04636467 -0.12525871
000190 25 67 dd bd ae 1c 14 3e 53 a2 97 3d ee a3 c3 3d
       -0.10810689 0.14464065 0.07404008 0.095527515
0001a0 c8 e5 a4 bd c0 ef 9e 3d 3d cc be 3d 94 9a 7d 3e
       -0.0805164 0.077605724 0.09316299 0.24765998
0001b0 c4 25 1c 3e 5c 5d bb 3d ae 8c 0b 3e 5c c6 49 3e
       0.15248781 0.09148666 0.13627884 0.19704574
0001c0 cf 3c df bd ba aa d4 bc 31 64 74 3d a9 75 a4 bd
       -0.1090027 -0.025960315 0.059665862 -0.080302544
0001d0 79 fc b8 3b 7f 5b 56 be 8a f3 ce 3d 5b 5b 7f 3e
       0.0056453315 -0.2093334 0.10105045 0.24937193
0001e0 09 83 49 be f5 1b 44 3d 25 87 c1 3d 95 40 9c bd
       -0.19678892 0.047878224 0.09449605 -0.076295055
0001f0 25 1a 9b 3d 72 1b ca 3d 8a 27 1f 3d 74 17 50 3e
       0.07573346 0.09868516 0.038856067 0.20321447
000200 44 41 b2 bb da 61 33 bc 09 3e 57 3c e9 24 2c bc
       -0.005439909 -0.010948623 0.013137349 -0.010506847
000210 de ee be 3d 22 f3 0d 3e d2 c9 3d be 91 c3 1a 3e
       0.09322904 0.13862279 -0.1853402 0.15113665
000220 8a bd db 3d 0a 2a f1 3c 9d ad 29 be ad d6 22 3a
       0.10729511 0.029438991 -0.16570134 0.0006211799
000230 4c 0a 6e 3e d9 a8 ed 3d 38 b1 0e be fe 33 d7 bc
       0.23246115 0.11604471 -0.13934791 -0.026269909
000240 ad cf 79 3d e4 03 44 bd 0c e1 66 3e d6 bb 5c 3d
       0.06098907 -0.047855273 0.22546786 0.05389007
000250 06 05 32 3e 57 33 b0 3d 63 c2 a5 be cd de ce bd
       0.17384729 0.08603542 -0.32374868 -0.101010896
000260 53 0b dd 3d 6e 0a 3c 3c 20 9f 64 3b 50 d3 4a 3e
       0.107931755 0.011477096 0.0034884885 0.19807172
000270 55 cc 83 bc ea aa 3a 3e 5f 9d b5 bd 62 4f 30 3e
       -0.016088644 0.18229261 -0.08867907 0.17217782
000280 c1 18 0d 3e 93 bf 4e 3d 46 32 58 3e 31 07 e4 3b
       0.13778974 0.05047567 0.21112928 0.006958865
000290 1b e7 29 be e2 a5 f3 3d 89 cb e8 3d 87 79 c9 bd
       -0.16592066 0.11896874 0.11366946 -0.098376326
0002a0 16 fd 89 3c 42 46 93 3d 46 58 d5 3d 88 f2 0c 3e
       0.016844314 0.07191135 0.104172274 0.13764393
0002b0 b0 66 04 3e fa 58 99 3d 9b b7 24 3e b3 e1 54 3e
       0.12929797 0.07487674 0.16085665 0.20789222
0002c0 8b 72 a7 3d ac 40 77 3d 3a d3 21 3e 5d b1 42 be
       0.08176144 0.06036441 0.15803233 -0.19012971
0002d0 5a 75 89 3d 5b c3 ad bd cb 48 00 be d5 84 b6 bd
       0.06711836 -0.08484527 -0.12527768 -0.089120544
0002e0 d4 5a aa bc 19 6a b0 bd b4 d6 83 be c8 05 5f 3d
       -0.020795263 -0.086139865 -0.25749743 0.054448873
0002f0 9e 4b 25 bd 2d f8 90 ba 38 04 03 be bf 74 ce 3d
       -0.040355317 -0.001106029 -0.12794578 0.10080861
000300 ba e6 f7 bd 6b bd 13 3e f3 c8 47 3c 18 a8 d9 bd
       -0.121045545 0.14427726 0.012193906 -0.106277645
000310 65 e4 0a be e1 56 82 3c af 78 01 3d f0 55 9c bd
       -0.13563688 0.015910568 0.031609233 -0.07633579
000320 15 aa 63 bd 2e 76 a4 bd 17 ab 25 3e 4e 18 1d be
       -0.055582125 -0.080303535 0.16178547 -0.15341303
000330 5b 86 03 be 6f 1a 55 3e c5 e8 62 3d 2e 71 46 3e
       -0.12844221 0.20810865 0.055397768 0.19379112
000340 87 78 0c bd a7 a1 1c 3d cb d6 a8 3c c6 3d d7 3d
       -0.03429463 0.0382401 0.020610234 0.10509829
000350 3e f4 de 3c 5b 17 bf 3c a4 a7 ea bc 05 cc 63 3e
       0.027216073 0.023326566 -0.02864439 0.22245796
000360 37 18 36 3d 77 65 04 3e cc 46 51 3e 13 ae 5d 3e
       0.044456687 0.12929331 0.20437163 0.21648435
000370 13 d9 7b be bc b2 ba 3b 67 c6 06 3d 7c 8c 8c 3c
       -0.24594526 0.0056975763 0.032904055 0.017156832
000380 ea c3 1a 3d 40 61 9d 3c 90 91 a9 bc 75 04 ea 3d
       0.037784494 0.019211411 -0.020699292 0.11426631
000390 01 ce 4d be bf 58 1f bd 60 57 32 3e 63 00 45 be
       -0.20098116 -0.038902994 0.17416143 -0.19238429
0003a0 3e 56 4a 3e 42 b8 4e 3c 30 ea 96 bd a6 a4 48 be
       0.19759461 0.012617173 -0.073688865 -0.19594058
0003b0 ce 50 71 bc 39 81 69 bd 67 e8 61 3d ba 1a 2e be
       -0.014728738 -0.057008002 0.055153277 -0.17002383
0003c0 61 ca 3b be 7a e5 18 be 05 bf 6f be 71 d3 44 3d
       -0.1833892 -0.14931288 -0.23412712 0.04805321
0003d0 8b 43 ae 3b 22 0c 5e 3e e5 9c c7 3d fb 37 0d 3e
       0.0053181103 0.21684316 0.09746722 0.13790886
0003e0 31 ca 1f be 57 85 9e 3d d6 a6 21 3d d0 2e a9 bd
       -0.15604474 0.07740276 0.039465748 -0.08260882
0003f0 b4 19 c7 3c 5b 92 ea 3d 15 b4 1b 3d 61 39 fd bc
       0.024304248 0.11453696 0.038013536 -0.03091115

arith.constant29 f4 [64]
000000 fb 3b 85 3c 34 e5 a2 3c 78 6e 3e bd fc eb 45 3d
       0.016263952 0.019884683 -0.04649207 0.048320755
000010 f8 b1 ef bc da 4a 1c bd db 71 d1 3d b0 75 8b bc
       -0.029259667 -0.03815732 0.10226794 -0.017023891
000020 c8 68 da bc 50 d1 42 3d 49 b7 41 bc 7e 2a aa bd
       -0.026661292 0.047562897 -0.011823484 -0.08308886
000030 e2 2e 91 3c a0 1f c7 3d 1e c1 57 bd 10 42 67 3c
       0.01772255 0.09722829 -0.052674405 0.014114872
000040 f6 e0 23 bd 97 f6 25 bd 4a ec 9f 3c 19 b0 61 3d
       -0.04000946 -0.04051837 0.019521851 0.05509958
000050 9a cb cd 3d 8b f0 7e bc a4 c3 38 bb 9e a6 4b 3c
       0.100485995 -0.01556028 -0.0028192783 0.012429861
000060 f3 72 32 bd 2a d4 ab bd f6 3d ed bc db e4 07 bd
       -0.043566655 -0.083900765 -0.02896021 -0.033177238
000070 72 13 c2 bd a9 22 4d bb ad ba 2f 3c 5a 44 d6 bd
       -0.09476365 -0.0031301177 0.010725659 -0.10462256
000080 f1 2e 0c bd ce 84 d8 3c 7b 44 1e 3d 34 40 b1 bd
       -0.034224454 0.026430514 0.038639527 -0.08654824
000090 70 7a 90 39 f0 18 4a bd 52 01 2f bd 61 86 de 3c
       0.00027557043 -0.04934019 -0.04272587 0.027163686
0000a0 1e 2a bb 3c ce ac c7 3d d4 a6 79 bc 86 3e 07 3c
       0.022847231 0.09749757 -0.015237529 0.008254653
0000b0 be 78 7b 3c b8 f1 b9 bb 49 0d aa bd 2c 58 06 3d
       0.015348611 -0.005674567 -0.08303315 0.03279893
0000c0 5e 3a 86 3c 90 76 7c 3d 2b 87 4c 3d c1 b8 bb 3d
       0.016385254 0.061636508 0.049933594 0.091660984
0000d0 20 a8 06 bc 15 57 c4 3d 38 bf 89 3d c8 41 d8 3c
       -0.008218795 0.09586922 0.06725925 0.026398554
0000e0 50 73 c8 3d 15 5d 28 bd d0 ab ce 3c b6 e3 ba 3d
       0.09787619 -0.041104395 0.025228411 0.09125464
0000f0 50 f6 a3 3d 5a 0e 18 3d 14 30 9a 3d 13 cc 80 bd
       0.08005965 0.03712306 0.075287014 -0.06288924

arith.constant30 f4 [128]
000000 69 e7 89 bd 5a af b9 3b ff 07 5f 3d 40 6b a5 3c
       -0.06733591 0.0056666555 0.054450985 0.020192742
000010 e0 2d e4 bd d0 73 c4 bd 45 c7 c8 3c f9 8e e9 3d
       -0.111415625 -0.09592402 0.024509082 0.11404223
000020 ca fc 50 3c 6c b1 59 3d 48 1d 2b bd 2f 35 2e be
       0.012755582 0.05314772 -0.04177597 -0.17012475
000030 eb 6f 30 bd 47 93 97 bc ca c2 27 3e ae 61 00 bd
       -0.043075483 -0.018502844 0.163829 -0.031343155
000040 f4 36 9c 3c 19 98 5f bd 07 7c 98 bc 87 dd d4 3c
       0.019069172 -0.05458841 -0.018613828 0.025984539
000050 80 e9 3b bd 58 d1 61 bd f7 96 ab bd 68 52 83 bd
       -0.04587698 -0.055131286 -0.08378404 -0.06412202
000060 ff 0f de bc 96 06 cb 3d ae 71 91 3c 9b 84 cc 3d
       -0.027107237 0.099133655 0.017754402 0.0998623
000070 07 7e 11 bc 8e 61 a5 bd 5e e8 8e 3b 7f 7e 4c bd
       -0.008880145 -0.08075248 0.0043611964 -0.049925324
000080 a9 50 5b bc 74 31 61 3b 99 8a 45 3a 1b f3 65 be
       -0.01338593 0.0034361752 0.0007535606 -0.22456019
000090 73 23 4d bd 75 34 07 3d b6 58 cb bd fb 16 3a 3d
       -0.050082635 0.03300901 -0.0992903 0.045432072
0000a0 22 23 08 bd 30 0f 50 3d 77 63 a2 3d e8 e1 ed 3c
       -0.03323663 0.050795734 0.07929128 0.029038385
0000b0 06 3d 85 bd 2f 37 80 3b 97 fc f8 bd 12 aa f8 3b
       -0.0650578 0.0039128284 -0.12157553 0.0075886333
0000c0 3c 86 06 bd 85 c9 5f 3c 6c cb fc 3a 47 09 2b 3e
       -0.03284286 0.013658886 0.0019286699 0.16702758
0000d0 73 87 74 3c 9c 07 d8 3a 38 5f 3a 3a 02 c2 8f bd
       0.014924872 0.001648176 0.00071095256 -0.07019426
0000e0 41 b3 90 bd d9 b4 bb 39 f7 ed c0 3c 0f 10 5f 3c
       -0.0706544 0.0003580216 0.02355097 0.0136146685
0000f0 28 a1 8a bd 7f d0 93 bc 95 86 a4 bb 50 02 8e bd
       -0.06769019 -0.018043755 -0.0050209262 -0.06934035
000100 42 f7 98 bd ec b9 16 3d 1e 6e 2f bd 48 8b 48 3d
       -0.07469036 0.036798403 -0.042829625 0.048960954
000110 da 5a cc bd f1 42 1b 3d 71 5e 0d 3d 97 1c f8 bc
       -0.09978266 0.037905637 0.034513894 -0.03028707
000120 54 70 e0 bc 6a 78 e5 bd 13 35 ba bc ab c7 2a bc
       -0.027397312 -0.11204608 -0.022730386 -0.010423581
000130 24 05 06 3d 57 87 99 bb 22 70 f9 bd 1d 72 ed ba
       0.032719746 -0.004685323 -0.12179591 -0.0018115673
000140 f7 db 6e bb 33 ea 6c bd d9 05 8e 3b 14 5c ea 3d
       -0.0036447027 -0.057840537 0.004334193 0.11443344
000150 9a 30 47 bd ef 2b 5e 3c 2e 36 0e 3d 0a e7 f4 3b
       -0.048630334 0.013560279 0.03471964 0.007473831
000160 be 87 05 3c a2 ca f4 bc cb 00 7e 3d 22 6e 6d 3d
       0.008150039 -0.02988178 0.062012475 0.05796636
000170 8c 70 b8 3d c4 6d 91 bd 04 24 b9 3c df 18 69 bd
       0.090058416 -0.07101014 0.022600181 -0.056908485
000180 14 8b 03 be 30 21 81 3b 9f a2 d9 bc bc 7b 81 bc
       -0.12846023 0.003940724 -0.026566802 -0.015806071
000190 95 fd 69 3d 12 97 b2 3d 4c ce 06 bd 9d c8 9c bd
       0.0571266 0.087202206 -0.032911584 -0.076554514
0001a0 41 c7 f8 bc 44 c9 93 bd b2 97 c3 3c fd 08 44 bd
       -0.03036845 -0.07216123 0.023876045 -0.047860134
0001b0 03 6f 0b 3d 0d a3 a1 bc 1c 4e 0b bd 8d dc 07 3c
       0.034041416 -0.019731069 -0.034010038 0.0082923295
0001c0 9f 6a e8 bb b5 43 16 be 2a 2d e2 3d 59 f1 c9 bc
       -0.0070927883 -0.14674266 0.110437706 -0.024651216
0001d0 18 5f e3 3d a8 52 72 3d da 80 7c 3d da fe 91 bc
       0.11102122 0.05916086 0.06164632 -0.017821718
0001e0 df df 76 bd 1c eb 2b 3d 32 f4 60 3c 83 0f 95 ba
       -0.060272094 0.041972265 0.013730096 -0.0011372421
0001f0 f7 9b 9e bd de ef 26 3e 46 be 72 39 63 6f df bd
       -0.07744592 0.1630244 0.00023149801 -0.10909917
